fcnn_regression.pth (torch, 52264 bytes, 10 tensors)

fc1.weight f4 [128, 20]
0.41185415 0.4790556 -0.020266866 0.09281882 -0.0031175436 -0.009542533 -0.19818434 -0.0006025132
0.07914824 -0.3453443 0.34063613 0.029060757 0.057024334 0.056749877 0.41437948 0.06455318
0.055899154 -0.014297306 0.00073977956 -0.013961241 -0.22632357 -0.15613136 -0.103887305 0.1545419
-0.19294041 -0.06832337 -0.022798104 -0.098118134 0.035621632 -0.10024463 0.12449669 -0.2117965
0.1681622 0.038263846 -0.21060365 0.09763489 0.041990478 0.14664066 0.011389277 -0.043146845
-0.05013723 -0.28977218 -0.003206736 0.25872025 0.12257911 0.20374537 0.4635462 -0.021770231
-0.01714742 0.33366355 -0.20631681 -0.06861788 -0.07236767 0.24627775 -0.17224929 0.10480388
0.087854736 0.04871495 -0.0054928674 -0.11310086 -0.2825797 -0.44740987 0.06740327 -0.16277464
0.013436907 -0.09339656 0.07336641 -0.05672962 -0.057597704 -0.010710847 -0.23879865 -0.017777128
0.117971115 -0.27850556 -0.5257276 -0.21601833 -0.08152226 0.029913219 -0.030118994 0.122272275
-0.29546696 -0.38934445 0.10947154 -0.113246955 0.13421428 -0.045732696 0.17616074 -0.12658896
-0.09135618 0.18801148 -0.16976771 -0.09366046 0.06789036 0.06807932 -0.38078776 -0.14289972
0.122578874 -0.027369257 -0.04823442 -0.1585562 -0.21813755 -0.13384072 -0.03397697 -0.2904736
0.01685555 -0.3006695 -0.48245025 -0.040116295 -0.060203835 -0.3537575 -0.09678876 -0.03074171
0.039245315 -0.39184746 -0.23781814 -0.16320428 -0.00368607 -0.088460125 -0.023702553 0.006600075
0.01729995 -0.07077726 -0.020143904 -0.13002013 -0.11686786 -0.11922009 -0.080555364 -0.19344407
0.18304043 -0.08737146 0.20544489 0.062184915 -0.17216286 0.13952057 -0.029254565 -0.12196842
-0.16977088 -0.22106752 0.10743138 0.01468146 -0.047310937 -0.29741007 0.123072766 -0.12082614
-0.04444519 0.06557442 0.13620539 0.1971994 0.1898741 -0.04794773 -0.028378274 -0.05145754
-0.004946465 -0.17999594 0.0554607 -0.19551574 0.1303513 0.07441726 0.08888269 -0.12918696
0.08528046 -0.02053677 0.04876234 -0.22767338 0.08956268 -0.12445727 -0.24669783 0.14420572
0.00061240606 -0.28324783 -0.18232505 -0.016636776 0.124186024 -0.108026505 -0.13001825 -0.13798968
-0.1009418 -0.019982884 0.12707813 -0.1462436 0.21040162 0.20245342 0.037056237 0.013324425
0.068123825 0.22788692 0.23965658 0.021774044 -0.039068367 0.21573414 0.09413717 -0.012667807
0.10138513 0.3310453 0.06991008 0.11738702 0.052892655 -0.0022271844 -0.029967079 0.02186531
-0.37900633 -0.2932606 0.12882124 -0.07084093 -0.06092733 -0.108510576 -0.06218936 -0.1005135
-0.06080959 0.116663806 -0.09019592 0.030012576 -0.18988243 -0.18630865 -0.27893248 0.08791069
0.008878703 -0.11519584 0.06928211 -0.029976826 0.19294727 0.21586587 -0.13833794 0.17768961
-0.052615054 0.3301708 0.537727 0.051470727 -0.09531956 0.17503649 0.12926246 0.10337014
0.118183054 0.4107081 0.23919515 0.21565033 0.060413495 0.040979113 -0.12334439 -0.19414976
-0.30151588 -0.42042688 -0.0049277036 -0.21360616 -0.047621418 -0.28444746 -0.22276537 0.025543494
-0.041727427 -0.08386427 -0.3968576 -0.07005994 -0.030380119 -0.3165627 -0.43982664 -0.24763581
00000000: 8cde d23e c746 f53e b306 a6bc cb17 be3d
00000010: b44f 4cbb 4958 1cbc d6f0 4abe faf1 1dba
00000020: 7918 a23d f8d0 b0be dc67 ae3e d310 ee3c
00000030: 5992 693d 8f72 683d 8c29 d43e 7534 843d
00000040: 83f6 643d 3f3f 6abc c4ed 413a b0bd 64bc
00000050: 5ec1 67be e6e0 1fbe dec2 d4bd 3b40 1e3e
00000060: 2c92 45be 1fed 8bbd 17c3 babc 29f2 c8bd
00000070: fde7 113d 0e4d cdbd 1ff8 fe3d 2fe1 58be
00000080: b632 2c3e 8dba 1c3d 7ca8 57be cdf4 c73d
00000090: 35fe 2b3d f828 163e 179a 3a3c bfba 30bd
000000a0: b25c 4dbd 055d 94be 1a28 52bb fb76 843e
000000b0: c20a fb3d a0a2 503e ed55 ed3e 7c57 b2bc
000000c0: bf78 8cbc f3d5 aa3e b744 53be 8887 8cbd
000000d0: 8035 94bd 3c30 7c3e 1e62 30be 6ba3 d63d
000000e0: 2fed b33d 5489 473d 83fd b3bb 6ca1 e7bd
000000f0: 49ae 90be e812 e5be ba0a 8a3d 65ae 26be
00000100: 7926 5c3c b246 bfbd 2141 963d 515d 68bd
00000110: 92eb 6bbd 8c7c 2fbc a287 74be 57a1 91bc
00000120: d79a f13d 4898 8ebe 1696 06bf e933 5dbe
00000130: 25f5 a6bd 910c f53c 1cbc f6bc e369 fa3d
00000140: 7247 97be 2858 c7be 9d32 e03d 05ee e7bd
00000150: 786f 093e 3552 3bbd 7b63 343e 89a0 01be
00000160: f318 bbbd 1586 403e 96d7 2dbe 0ed1 bfbd
00000170: 1a0a 8b3d 2c6d 8b3d 9df6 c2be 4e54 12be
00000180: a20a fb3d 7e35 e0bc 7591 45bd 8e5c 22be
00000190: 735f 5fbe 8b0d 09be 6f2b 0bbd f5b8 94be
000001a0: a714 8a3c 5af1 99be b803 f7be fc50 24bd
000001b0: 4c98 76bd b41f b5be 2f39 c6bd 0ad6 fbbc
000001c0: b2bf 203d 3ba0 c8be 9986 73be 061f 27be
000001d0: fe91 71bb 952a b5bd db2b c2bc 7145 d83b
000001e0: a0b8 8d3c abf3 90bd d404 a5bc ff23 05be
000001f0: 6b58 efbd aa29 f4bd 36fa a4bd 3416 46be
00000200: f36e 3b3e cfef b2bd 2560 523e 9cb5 7e3d
00000210: 764b 30be 7bde 0e3e 45a7 efbc 94ca f9bd
00000220: 6bd8 2dbe 865f 62be fc04 dc3d 828a 703c
00000230: 1dc9 41bd 2246 98be 930d fc3d b273 f7bd
00000240: 290c 36bd e24b 863d 6d79 0b3e a4ee 493e
00000250: 5b6e 423e d764 44bd 8e79 e8bc 24c5 52bd
00000260: f515 a2bb db50 38be c22a 633d 4735 48be
00000270: d07a 053e 1468 983d 2108 b63d 9649 04be
00000280: 86a7 ae3d ba3c a8bc 05bb 473d 3623 69be
00000290: a36c b73d 74e3 febd 5b9e 7cbe aaaa 133e
000002a0: e089 203a dc05 91be 6bb3 3abe d949 88bc
000002b0: 3e55 fe3d 003d ddbd 8123 05be 2b4d 0dbe
000002c0: 93ba cebd 25b3 a3bc c520 023e e2c0 15be
000002d0: 8673 573e f34f 4f3e 48c8 173d b04e 5a3c
000002e0: 8184 8b3d 305b 693e 8968 753e 7b5f b23c
000002f0: 2706 20bd 69e9 5c3e fdca c03d a28c 4fbc
00000300: 02a3 cf3d c57e a93e 042d 8f3d 9b68 f03d
00000310: f8a5 583d f4f5 11bb 857d f5bc e11e b33c
00000320: 1e0d c2be 4126 96be b7e9 033e 0d15 91bd
00000330: f08e 79bd cb3a debd 45ba 7ebd 06da cdbd
00000340: 7a13 79bd 6fed ee3d a3b8 b8bd efdc f53c
00000350: 8a70 42be b2c7 3ebe 3dd0 8ebe 850a b43d
00000360: fb77 113c cceb ebbd c7e3 8d3d f691 f5bc
00000370: f893 453e f10b 5d3e 76a8 0dbe 44f4 353e
00000380: e282 57bd 260c a93e 7aa8 093f f8d2 523d
00000390: e736 c3bd c43c 333e 615d 043e b9b3 d33d
000003a0: f509 f23d 5548 d23e 93ef 743e 71d3 5c3e
000003b0: 2474 773d b7d9 273d fc9b fcbd 32cf 46be
000003c0: 4a60 9abe 3142 d7be 9378 a1bb 93bb 5abe
000003d0: ad0e 43bd 19a3 91be 9b1c 64be 9740 d13c
000003e0: 61ea 2abd 08c1 abbd eb30 cbbe 967b 8fbd
000003f0: badf f8bc 8214 a2be f530 e1be 3e94 7dbe

fc1.bias f4 [128]
-0.298503 0.14497729 0.2671318 -0.04662049 0.0017291582 -0.022878967 0.009456548 0.1970915
0.08021714 0.034337394 -0.034679536 0.024646757 -0.18783452 0.11628532 -0.014535779 -0.105445325
0.012985745 -0.17853482 -0.15130997 0.052210037 0.06759328 -0.02281844 0.22970381 -0.16410203
-0.07148008 -0.006196636 -0.010453102 -0.04607504 0.2061434 -0.103204444 -0.14169061 0.0075063645
0.108380675 0.1282911 0.24935874 0.01913513 0.05187698 0.20702273 0.30310163 -0.05955129
-0.18428415 -0.13094224 0.116608396 0.21652326 0.053258643 0.029611433 -0.07682218 -0.0076424107
-0.03168489 -0.040957503 0.09948128 -0.038379814 0.051000576 -0.13182694 -0.12670693 0.0063110823
0.060951386 0.08291793 0.057721507 -0.17458269 0.14899787 -0.15340108 -0.190961 0.027820228
-0.09273029 0.11252552 -0.03714473 0.053051647 0.05043163 -0.098399825 -0.2586187 -0.024600971
0.14119682 0.5045499 -0.1643006 -0.12609828 0.1352273 -0.013314368 -0.07609541 0.35833895
-0.12418136 0.13097735 0.14830123 0.10960723 -0.13824137 0.059877284 -0.17606942 -0.077804096
0.23308064 -0.09026452 -0.118457034 0.0119915055 0.03817275 -0.06614505 -0.1348325 -0.2513157
0.115994066 -0.09706599 -0.0024251502 -0.12241478 -0.111776635 -0.06302785 -0.17329063 -0.098296426
-0.0060609924 -0.16770725 -0.21935359 0.019582992 -0.04863398 -0.06923314 -0.0033230942 0.1333495
-0.10490755 -0.12511809 -0.14848681 -0.019063063 0.007262425 -0.1899077 0.43444788 -0.18160291
0.41017643 -0.15232855 0.007595632 0.036051936 -0.081442535 0.20231856 -0.14425983 -0.026488427
00000000: 63d5 98be ed74 143e 80c5 883e 20f5 3ebd
00000010: eca4 e23a ac6c bbbc a3ef 1a3c 5bd2 493e
00000020: e248 a43d 5ea5 0c3d 210c 0ebd ffe7 c93c
00000030: b157 40be ff26 ee3d 7a27 6ebc b8f3 d7bd
00000040: 2ac2 543c d5d1 36be 00f1 1abe 31da 553d
00000050: 586e 8a3d bded babc 7a37 6b3e 5d0a 28be
00000060: 2664 92bd 260d cbbb 7d43 2bbc 2eb9 3cbd
00000070: 4117 533e da5c d3bd 5817 11be f3f7 f53b
00000080: b0f6 dd3d be5e 033e e657 7f3e 47c1 9c3c
00000090: f57c 543d c4fd 533e 2330 9b3e 0eec 73bd
000000a0: fcb4 3cbe b915 06be 62d0 ee3d 46b8 5d3e
000000b0: bc25 5a3d ad93 f23c f254 9dbd 306d fabb
000000c0: 04c8 01bd 0ec3 27bd d7bc cb3d 2734 1dbd
000000d0: fbe5 503d a4fd 06be 76bf 01be 32cd ce3b
000000e0: 29a8 793d e0d0 a93d 636d 6c3d cec5 32be
000000f0: e692 183e 2c15 1dbe 488b 43be 3fe7 e33c
00000100: 61e9 bdbd c873 e63d 1325 18bd af4c 593d
00000110: 6691 4e3d d985 c9bd ac69 84be fa87 c9bc
00000120: e695 103e 2f2a 013f 6b3e 28be e81f 01be
00000130: 0679 0a3e 8224 5abc e9d7 9bbd 3478 b73e
00000140: cc52 febd ed1e 063e 47dc 173e c179 e03d
00000150: 258f 0dbe e241 753d 8b4b 34be c157 9fbd
00000160: b1ac 6e3e 9bdc b8bd 9a99 f2bd 0578 443c
00000170: 085b 1c3d 0e77 87bd 8811 0abe 74ac 80be
00000180: 4c8e ed3d 89ca c6bd 45ef 1ebb 9ab4 fabd
00000190: 26eb e4bd bf14 81bd 1973 31be a34f c9bd
000001a0: 4a9b c6bb 73bb 2bbe 3a9e 60be 836c a03c
000001b0: 6d34 47bd 1bca 8dbd 45c8 59bb c58c 083e
000001c0: c5d9 d6bd f51e 00be ed0c 18be 242a 9cbc
000001d0: a3f9 ed3b 2a77 42be f46f de3e 1df6 39be
000001e0: a502 d23e 04fc 1bbe c8e4 f83b 32ab 133d
000001f0: 58cb a6bd 992c 4f3e d9b8 13be 42fe d8bc

fc2.weight f4 [64, 128]
-0.10157616 0.01943205 0.16701217 0.13838652 0.08351095 -0.046007633 0.057969287 -0.002374161
0.040183354 0.034898818 -0.0015813697 0.016902644 0.1475532 0.056976963 -0.0015300822 0.018245462
-0.03424489 0.028232763 0.074236825 -0.018624092 -0.026973842 -0.014407186 -0.027274193 -0.0901667
0.06536248 0.11979743 0.107056685 0.06706353 0.00025069827 0.09838836 0.020975865 0.049340326
0.070629224 0.14570285 0.17727794 -0.049337484 0.17163135 0.09305231 0.13439173 -0.05140287
0.006250515 -0.034713786 0.102561206 0.10779315 0.09849039 0.00435037 0.08236775 -0.04353178
0.14258832 0.04153575 0.08030313 0.024759162 -0.025779644 -0.008326745 -0.016213031 0.181421
0.1492503 0.06642835 -0.055890534 0.09177573 0.11528847 0.041217085 0.06708891 0.018191142
0.15006384 0.14569023 0.10480027 -0.046519272 0.106024176 0.00011510187 0.16640106 -0.049133237
0.09983026 0.230455 -0.023807764 0.090070866 -0.09334928 -0.022666313 -0.1117208 0.1409045
-0.06307895 0.058221996 -0.036624502 0.043206245 -0.04887794 0.059833266 -0.007858739 0.11275601
0.028181545 0.0367124 -0.052063353 -0.015669923 -0.009558945 0.047835406 0.08653586 -0.00020742523
0.1489957 0.019297898 -0.09536815 0.0669007 -0.0558685 -0.052406732 0.009639604 0.022297764
-0.045371242 -0.09432092 0.12315306 0.14865941 0.106878966 0.025297424 0.13404705 0.013848694
0.0451183 0.089802116 0.09408427 -0.057640716 -0.03112407 -0.084954835 0.13415028 0.043374818
0.2538475 0.053785287 0.047522288 -0.024822826 -0.05139497 -0.016819099 0.01786902 -0.04972696
0.23064922 -0.06407971 -0.07313685 0.056771353 0.01687386 0.01582016 0.015321823 0.027259352
-0.03970372 0.0024381957 0.012576587 -0.04715183 0.10521915 -0.05548529 0.088944145 -0.04640343
-0.048676506 0.0499616 -0.049339373 -0.029765004 0.08640858 -0.09439522 -0.07852707 0.024527429
0.06127897 -0.00121298 0.08001621 0.026288567 0.14898676 -0.07849405 0.10412548 0.045427795
-0.024088088 0.027719367 -0.06070235 0.0066074594 -0.08922994 -0.06471317 -0.019067416 0.020542352
0.048778377 -0.050751343 -0.055621993 -0.042005062 -0.051106405 0.028913552 0.106869124 -0.017696273
-0.09480015 0.060096636 0.0391498 -0.024547221 0.18275246 -0.08716526 0.018822337 0.04034659
0.06139916 0.02805387 0.010680614 0.008287676 -0.024767816 0.027933365 -0.018553924 0.013473352
-0.06931704 -0.09745669 -0.08878795 -0.074218296 -0.036950994 0.119168766 0.02219064 -0.046915896
-0.072527304 -0.04371011 -0.030488398 -0.027086439 0.03618159 -0.026217435 0.1029549 -0.030490879
0.05428181 0.02762387 0.043931298 -0.020863323 -0.049628813 -0.041106485 -0.048879407 0.025959637
-0.044559475 -0.046978306 -0.08478739 0.0111930175 0.095429204 0.0486161 -0.033561114 0.024444448
0.003512657 -0.03767402 -0.0005572772 0.107431084 0.00087259075 0.08447882 0.033320136 0.01702877
0.050304417 0.13815683 0.020242784 -0.005056024 -0.038386237 0.02332467 -0.046658725 0.0913245
0.115875676 0.036444083 -0.050337855 -0.040285196 -0.07749534 0.053597413 -0.104768746 -0.04513444
0.056945115 0.017302994 -0.0038964848 -0.07080865 -0.005456627 0.102555774 -0.09826642 0.111373976
00000000: 2907 d0bd f62f 9f3c 3d05 2b3e 32b5 0d3e
00000010: ca07 ab3d 8072 3cbd 3471 6d3d d097 1bbb
00000020: 4d97 243d 10f2 0e3d f645 cfba 6a77 8a3c
00000030: 3018 173e ad60 693d 0a8d c8ba 8277 953c
00000040: 5f44 0cbd 6548 e73c 7a09 983d 8d91 98bc
00000050: 3ff8 dcbc 1e0c 6cbc 216e dfbc 52a9 b8bd
00000060: c4dc 853d 5b58 f53d 8940 db3d 9b58 893d
00000070: 2770 8339 d67f c93d 94d5 ab3c 1519 4a3d
00000080: 0ea6 903d 2133 153e 5988 353e 1a16 4abd
00000090: 21c0 2f3e 3692 be3d fc9d 093e d18b 52bd
000000a0: 1fd1 cc3b 0b30 0ebd 9c0b d23d a8c2 dc3d
000000b0: 54b5 c93d 8c8d 8e3b 6cb0 a83d 614e 32bd
000000c0: ac02 123e 6421 2a3d f875 a43d bad3 ca3c
000000d0: d52f d3bc e66c 08bc 31d1 84bc 6dc6 393e
000000e0: 12d5 183e 960b 883d 79ed 64bd eaf4 bb3d
000000f0: 5d1c ec3d 3fd3 283d e965 893d 9705 953c
00000100: 56aa 193e d22f 153e 86a1 d63d fe8a 3ebd
00000110: 3423 d93d d962 f138 0a65 2a3e ef3f 49bd
00000120: cf73 cc3d 65fc 6b3e 8008 c3bc 1377 b83d
00000130: e82d bfbd b4ae b9bc e0cd e4bd 4549 103e
00000140: 892f 81bd 307a 6e3d 9303 16bd 08f9 303d
00000150: 3c34 48bd ba13 753d f1c1 00bc 9fec e63d
00000160: fcdc e63c be5f 163d 6240 55bd 365e 80bc
00000170: 1f9d 1cbc 0fef 433d b739 b13d 4980 59b9
00000180: 5492 183e a016 9e3c 6050 c3bd 3c03 893d
00000190: 5ed6 64bd 71a8 56bd 6eef 1d3c cda9 b63c
000001a0: 32d7 39bd 542b c1bd ac37 fc3d 2c3a 183e
000001b0: 5ce3 da3d 8b3c cf3c a143 093e a2e5 623c
000001c0: f7cd 383d 2cea b73d 41af c03d ac18 6cbd
000001d0: e8f7 febc cdfc adbd b15e 093e cba9 313d
000001e0: 4df8 813e f64d 5c3d bba6 423d 3d59 cbbc
000001f0: 8883 52bd 35c8 89bc 0d62 923c 7fae 4bbd
00000200: 4f2f 6c3e 393c 83bd c6c8 95bd 1489 683d
00000210: 0d3b 8a3c 4899 813c 6208 7b3c 014f df3c
00000220: 5ea0 22bd 23ca 1f3b 070e 4e3c 4722 41bd
00000230: 237d d73d 8b44 63bd 5928 b63d 8611 3ebd
00000240: 0461 47bd 89a4 4c3d 1518 4abd bdd5 f3bc
00000250: fbf6 b03d 4852 c1bd cdd2 a0bd bfed c83c
00000260: a8ff 7a3d dbfc 9eba 8adf a33d 1f5b d73c
00000270: fc8f 183e 7dc1 a0bd bd3f d53d 7f12 3a3d
00000280: 6254 c5bc ba13 e33c 07a3 78bd 6383 d83b
00000290: 30be b6bd 5788 84bd 4533 9cbc 6f48 a83c
000002a0: d6cb 473d a4e0 4fbd e3d3 63bd 800d 2cbd
000002b0: f354 51bd 1ddc ec3c 33de da3d c6f7 90bc
000002c0: 9526 c2bd e427 763d 8a5b 203d 4117 c9bc
000002d0: 7623 3b3e b383 b2bd 4d31 9a3c 7742 253d
000002e0: b07d 7b3d 3bd1 e53c befd 2e3c 08c9 073c
000002f0: e0e5 cabc 83d4 e43c 66fe 97bc 56bf 5c3c
00000300: 18f6 8dbd 6097 c7bd 75d6 b5bd c3ff 97bd
00000310: ed59 17bd c10e f43d 25c9 b53c e22a 40bd
00000320: 3289 94bd 5f09 33bd cec2 f9bc 61e4 ddbc
00000330: 2633 143d f2c5 d6bc 05da d23d 02c8 f9bc
00000340: 9a56 5e3d 744b e23c 4ef1 333d 8fe9 aabc
00000350: 9547 4bbd 465f 28bd c635 48bd 4ea9 d43c
00000360: ff83 36bd 536c 40bd 03a5 adbd eb62 373c
00000370: 6370 c33d ad21 473d 6177 09bd b93f c83c
00000380: 9b34 663b 1350 1abd 3d16 12ba d404 dc3d
00000390: 93be 643a 3b03 ad3d b27a 083d eb7f 8b3c
000003a0: 010c 4e3d fc78 0d3e 32d4 a53c 01ad a5bb
000003b0: e33a 1dbd 6113 bf3c 381d 3fbd 5708 bb3d
000003c0: 3a50 ed3d 6446 153d 112f 4ebd 1702 25bd
000003d0: e0b5 9ebd f688 5b3d ff90 d6bd e4de 38bd
000003e0: 483f 693d 02bf 8d3c 2b5c 7fbb 2004 91bd
000003f0: 81cd b2bb c308 d23d e83f c9bd 0a18 e43d

fc2.bias f4 [64]
0.011069913 -0.062709205 -0.002391458 -0.069014765 -0.03168536 -0.06648644 -0.07172656 -0.036424205
-0.008460502 0.056524724 0.0739418 0.11151761 -0.11516668 -0.030813335 0.04731974 -0.13505961
-0.028258462 0.03473366 -0.08515671 -0.021188816 -0.06645352 -0.079086564 -0.11066119 0.02113994
0.04792153 0.064967535 -0.04986895 0.06179175 -0.059847876 0.04203348 0.023460163 -0.041082475
0.055417493 0.11734137 -0.03706929 0.007028891 0.13047326 -0.033221103 0.00480761 -0.07689738
0.124246635 0.036714595 0.04333928 0.040878925 -0.00898681 -0.03964736 -0.08022135 0.023219122
-0.027264515 -0.009221556 0.024996521 0.012196948 -0.007721255 0.044630934 0.04825141 -0.08866393
-0.045949467 -0.058384556 -0.10247444 0.09309429 0.06513336 0.058641087 -0.08818727 -0.012346373
00000000: 955e 353c af6d 80bd 02ba 1cbb 9d57 8dbd
00000010: 82c8 01bd 0b2a 88bd 60e5 92bd 8c31 15bd
00000020: eb9d 0abc 7886 673d cc6e 973d 5863 e43d
00000030: 82dc ebbd 3f6c fcbc 58d2 413d 114d 0abe
00000040: 4a7e e7bc e244 0e3d a466 aebd 2b94 adbc
00000050: c818 88bd 23f8 a1bd 55a2 e2bd ab2d ad3c
00000060: 5e49 443d b30d 853d 6243 4cbd 5919 7d3d
00000070: 0c23 75bd 4c2b 2c3d 872f c03c 1946 28bd
00000080: 74fd 623d ac50 f03d f8d5 17bd 9c52 e63b
00000090: c89a 053e da12 08bd 2889 9d3b 607c 9dbd
000000a0: 0575 fe3d 0b62 163d 8784 313d a970 273d
000000b0: 6a3d 13bc 4565 22bd 174b a4bd 0736 be3c
000000c0: d559 dfbc 0216 17bc 81c5 cc3c b5d5 473c
000000d0: 9502 fdbb edce 363d 45a3 453d 6f95 b5bd
000000e0: 8235 3cbd a524 6fbd 1fde d1bd 38a8 be3d
000000f0: a464 853d a331 703d 879b b4bd 7148 4abc

fc3.weight f4 [16, 64]
0.18868184 0.037830092 0.24960472 -0.078870565 0.22165741 -0.14830685 0.05577239 0.17148697
0.055069875 0.22717868 0.17390239 0.12192623 -0.112975866 0.053620443 0.08533441 -0.14972371
0.07485063 0.019790888 -0.13609561 0.3339789 -0.06599933 0.21593985 0.0065454617 0.29868734
0.02116423 -0.059733573 0.066689074 -0.012590087 0.045001127 0.09374027 0.4347796 0.11008219
-0.025112232 -0.15399235 -0.08986167 -0.021270512 -0.1430779 -0.008318454 -0.016773034 -0.027581379
-0.038834386 0.1611581 0.048925027 0.042095684 0.26221555 0.101090565 0.07159146 0.041981753
-0.03488933 0.28487876 0.07864016 0.023421016 0.24613465 -0.13370736 0.008981948 0.13402133
0.084017344 0.08419852 -0.099978134 0.16244332 0.027172577 -0.15951563 0.17056273 0.079714686
0.07610509 0.1597034 0.047237553 0.10237086 -0.09417629 -0.08029813 0.03295778 0.14431658
0.09900085 -0.08169281 0.20152256 0.5151852 -0.08628364 -0.055884313 0.025537232 0.049911134
-0.072386056 0.17058264 0.011615935 0.2416895 -0.07083001 -0.12125281 0.13921401 -0.059819464
0.38512617 -0.032035783 0.010650971 0.09125297 -0.047386758 0.05368288 0.052352194 0.37064713
0.054066528 0.32660726 0.14252095 0.15742497 0.13988447 0.36729446 -0.034043863 0.0059511326
0.23034118 0.28560174 0.17781755 0.28457233 0.0042851223 0.1195107 0.109885074 0.059556488
-0.042339597 0.11497282 0.4251336 0.1322253 0.053580627 0.1333694 0.029082391 0.08649901
-0.11689504 0.07547018 0.0128661785 -0.019701822 0.07874947 0.044140577 0.07446447 0.15709762
0.22782293 -0.18543531 0.2952179 -0.08471236 0.15989941 -0.16527624 -0.08996467 0.20198356
0.23739125 0.19007286 0.37042215 0.31129834 -0.15304191 -0.11382861 -0.12633692 -0.26309946
-0.094228715 -0.056492433 -0.19880678 0.4021029 0.065367416 0.09160942 0.25599545 0.060444634
0.41915217 0.2536139 0.056781113 -0.06109974 0.029175228 -0.004817378 0.46635598 0.39673072
0.062331997 -0.08592645 -0.11841277 -0.07055628 0.03780266 -0.14880762 0.086551666 0.0736032
0.14642671 0.32858256 0.21633348 0.21168315 0.12441912 0.071143724 0.16247582 0.041697133
0.0022964699 0.39245832 0.32171726 0.041339807 0.0671031 -0.17303063 -0.12151354 0.033290897
-0.059949145 -0.01665615 -0.046981335 0.1384736 -0.0364942 -0.16504362 0.12697841 -0.14538683
-0.101758376 -0.02222359 -0.0156727 -0.11734441 0.060680885 0.008991679 0.050905023 -0.0028693476
-0.03062478 -0.05714408 -0.018853582 -0.098591834 0.05023487 0.035450917 0.08824271 -0.1165313
-0.017611155 -0.05021387 -0.0014302183 0.0128559135 -0.01960739 -0.017750379 -0.03153838 0.020023288
-0.07085889 -0.017504603 0.061496988 0.08246631 0.013621965 -0.021148916 0.004910259 0.052493624
0.02029193 -0.07356355 -0.09895899 0.058124196 -0.054386266 0.045559324 -0.10745772 0.068065055
0.05366875 -0.025317969 -0.09909075 -0.015663072 0.058784883 0.09235942 -0.0068790643 -0.014681387
0.1004862 0.014065848 0.11214128 0.10779079 -0.082653314 -0.09490737 -0.042409685 -0.021146983
0.11119497 -0.09406076 0.055732723 0.09365224 0.0057653026 -0.10689209 -0.095177375 0.016558327
00000000: d035 413e baf3 1a3d 6198 7f3e e486 a1bd
00000010: 29fa 623e c0dd 17be 9771 643d 489a 2f3e
00000020: f390 613d 87a1 683e 7813 323e 76b4 f93d
00000030: e45f e7bd 1ca1 5b3d cfc3 ae3d 2c51 19be
00000040: 494b 993d 8020 a23c a65c 0bbe 48ff aa3e
00000050: a82a 87bd 561f 5d3e 507b d63b 8ced 983e
00000060: 9b60 ad3c 31ab 74bd 4894 883d a746 4ebc
00000070: 1a53 383d e6fa bf3d 6f9b de3e c572 e13d
00000080: 2bb8 cdbc 2cb0 1dbe 6509 b8bd 7f3f aebc
00000090: 0383 12be 204a 08bc 9a67 89bc 58f2 e1bc
000000a0: ce10 1fbd a106 253e 9c65 483d 866c 2c3d
000000b0: 1e41 863e 9208 cf3d 8b9e 923d 0ff5 2b3d
000000c0: 1de8 0ebd a1db 913e 180e a13d 6edd bf3c
000000d0: b90a 7c3e 95ea 08be 0529 133c e33c 093e
000000e0: 4911 ac3d 4670 ac3d 56c1 ccbd 8b57 263e
000000f0: 0699 de3c 1158 23be ffa7 2e3e 7441 a33d
00000100: fcdc 9b3d 4a89 233e 2a7c 413d d0a7 d13d
00000110: 80df c0bd 5973 a4bd bdfe 063d bac7 133e
00000120: f5c0 ca3d 8f4e a7bd ee5b 4e3e 2de3 033f
00000130: 7ab5 b0bd f3e6 64bd 7533 d13c 9e6f 4c3d
00000140: 243f 94bd 37ad 2e3e c350 3e3c 747d 773e
00000150: 530f 91bd 6553 f8bd 1e8e 0e3e 4105 75bd
00000160: 422f c53e f437 03bd 6981 2e3c d6e2 ba3d
00000170: 9e18 42bd 94e2 5b3d 416f 563d 76c5 bd3e
00000180: dd74 5d3d 1139 a73e 03f1 113e 0334 213e
00000190: e03d 0f3e 050e bc3e 9471 0bbd b801 c33b
000001a0: 8fde 6b3e 643a 923e ce15 363e 77b3 913e
000001b0: 366a 8c3b 07c2 f43d 6d0b e13d 81f1 733d
000001c0: 496c 2dbd df76 eb3d 1cab d93e 1266 073e
000001d0: 5c77 5b3d fd91 083e 323e ee3c 6526 b13d
000001e0: ab66 efbd 1c90 9a3d aacc 523c b765 a1bc
000001f0: 6747 a13d c0cc 343d d480 983d 33de 203e
00000200: 6a4a 693e c1e2 3dbe cd26 973e ac7d adbd
00000210: acbc 233e 2d3e 29be 663f b8bd c7d4 4e3e
00000220: b116 733e 76a2 423e f9a7 bd3e 7f62 9f3e
00000230: 05b7 1cbe f91e e9bd 775e 01be f9b4 86be
00000240: fcfa c0bd 9c64 67bd 0194 4bbe 6ee0 cd3e
00000250: 5adf 853d b89d bb3d d611 833e cb94 773d
00000260: 1d9b d63e aed9 813e 5093 683d b943 7abd
00000270: e300 ef3c 18db 9dbb 36c6 ee3e 4a20 cb3e
00000280: d64f 7f3d 35fa afbd 6582 f2bd d07f 90bd
00000290: f6d6 1a3d 0661 18be 0042 b13d 46bd 963d
000002a0: e2f0 153e f93b a83e 8686 5d3e 78c3 583e
000002b0: 74cf fe3d cdb3 913d 1060 263e 9dca 2a3d
000002c0: 5f80 163b 4cf0 c83e 20b8 a43e ee53 293d
000002d0: 5a6d 893d f12e 31be 17dc f8bd 095c 083d
000002e0: 3c8d 75bd 7a72 88bc 806f 40bd 06cc 0d3e
000002f0: f17a 15bd 3201 29be a106 023e 49e0 14be
00000300: b266 d0bd 3f0e b6bc 0964 80bc 4452 f0bd
00000310: 858c 783d d651 133c c981 503d aa0b 3cbb
00000320: d2e0 fabc e90f 6abd d472 9abc 84ea c9bd
00000330: 14c3 4d3d fb34 113d 98b8 b43d f6a7 eebd
00000340: 4545 90bc 0fad 4dbd 2a76 bbba 9ca1 523c
00000350: ad9f a0bc 3e69 91bc 632e 01bd e107 a43c
00000360: 771e 91bd d065 8fbc 44e4 7b3d 19e4 a83d
00000370: aa2e 5f3c 7e40 adbc 3de6 a03b 8e03 573d
00000380: 433b a63c 7da8 96bd 03ab cabd a313 6e3d
00000390: 22c4 5ebd 6a9c 3a3d cb12 dcbd b165 8b3d
000003a0: c3d3 5b3d a167 cfbc 17f0 cabd d84f 80bc
000003b0: 6bc8 703d f026 bd3d c669 e1bb 338a 70bc
000003c0: b5cb cd3d 7174 663c 54aa e53d 6bc1 dc3d
000003d0: 2446 a9bd cc5e c2bd c7b5 2dbd 703c adbc
000003e0: 30ba e33d eea2 c0bd ff47 643d bfcc bf3d
000003f0: ddea bc3b 3dea dabd 5bec c2bd 54a5 873c

fc3.bias f4 [16]
0.030826693 0.08922475 -0.12834723 -0.023415405 -0.09327856 0.44786626 0.0155232325 0.40527233
-0.2130635 -0.11152712 -0.01793448 -0.032803744 -0.08849594 -0.10843556 -0.011138341 -0.070795715
00000000: 4388 fc3c 77bb b63d 756d 03be aad1 bfbc
00000010: d408 bfbd ba4e e53e 2855 7e3c db7f cf3e
00000020: 512d 5abe 5568 e4bd 55eb 92bc 385d 06bd
00000030: 5c3d b5bd 7613 debd 977d 36bc 58fd 90bd

fc4.weight f4 [8, 16]
0.22242118 1.128418 0.14147373 -0.033108063 -0.008500276 1.8256829 -0.13396946 0.09809474
0.8175818 1.7772756 0.21721008 1.0232987 -0.12215739 0.15045166 0.67980766 0.11197859
0.2710836 -0.14216286 -0.2651574 -0.1775893 -0.083495565 0.008680338 0.22887835 0.38748062
-0.2606251 -0.16164301 -0.07049887 -0.044481065 0.101649 -0.14564237 0.02196729 0.12115386
0.04966233 0.23776925 0.16941538 -0.23840852 0.12190593 0.6634615 -0.06788628 0.031797975
0.30783898 0.45419058 -0.002629432 0.521395 -0.0057920315 -0.1667476 0.52031565 0.15573597
0.3307962 -0.4029739 -1.141035 -0.085876875 0.16984801 0.70211315 0.20271295 2.6340182
-1.48759 -1.13433 -0.0268683 -0.9874507 -0.14897427 0.026024181 -0.42461318 0.19574735
0.05205915 0.117799655 -0.030612858 -0.121393226 0.22102976 -0.066213325 0.24355231 0.60357827
0.049852524 -0.17909794 0.18325506 0.18338792 0.010865229 0.23635663 -0.18693157 -0.18289283
0.55320466 0.022810958 0.70628875 0.12000889 0.067834795 -0.69279766 -0.08263525 0.71395326
0.7544822 0.24499561 0.07350835 0.25542623 -0.021995073 0.043583423 0.32076612 0.23915109
0.6239381 -0.07038624 0.35240585 -0.23787585 -0.024310132 -0.40483716 -0.16221105 1.6358699
0.27338514 -0.12354206 -0.12890764 0.12921917 -0.21262985 0.15916051 0.064707115 -0.14697933
0.5577222 -0.26619345 0.48595864 0.00029118048 -0.018185828 -0.5604836 -0.12269408 2.1916108
0.2822888 0.068584554 0.1773017 0.23054232 -0.17949747 0.24854027 -0.14912988 -0.10627964
00000000: 61c2 633e 0070 903f 7dde 103e 529c 07bd
00000010: be44 0bbc faaf e93f 4a2f 09be e5e5 c83d
00000020: 0a4d 513f c47d e33f 526c 5e3e 74fb 823f
00000030: a72d fabd 0010 1a3e e007 2e3f 0855 e53d
00000040: 78cb 8a3e 2493 11be b6c2 87be f8d9 35be
00000050: b9ff aabd fa37 0e3c 165f 6a3e dc63 c63e
00000060: a770 85be bf85 25be b661 90bd c731 36bd
00000070: 5a2d d03d 4623 15be bff4 b33c 841f f83d
00000080: ba6a 4b3d c879 733e 3a7b 2d3e 5d21 74be
00000090: d1a9 f93d 9dd8 293f f607 8bbd 983e 023d
000000a0: 129d 9d3e ab8b e83e 8c52 2cbb 257a 053f
000000b0: 15cb bdbb e2bf 2abe 6833 053f 4079 1f3e
000000c0: 1f5e a93e 9852 cebe 6f0d 92bf 37e0 afbd
000000d0: a3ec 2d3e b0bd 333f fc93 4f3e c193 2840
000000e0: 5969 bebf ba31 91bf e91a dcbc 92c9 7cbf
000000f0: b68c 18be aa30 d53c e666 d9be fe71 483e
00000100: fa3b 553d f240 f13d d1c7 fabc 039d f8bd
00000110: a055 623e da9a 87bd c765 793e 1b84 1a3f
00000120: 2932 4c3d 7365 37be 37a7 3b3e 0bca 3b3e
00000130: 1304 323c 7907 723e fd6a 3fbe 4248 3bbe
00000140: d29e 0d3f 0cde ba3c 57cf 343f 39c7 f53d
00000150: f8ec 8a3d 305b 31bf ac3c a9bd a4c5 363f
00000160: bf25 413f 21e0 7a3e 8c8b 963d 3ac7 823e
00000170: 032f b4bc 8884 323d 753b a43e 06e4 743e
00000180: 68ba 1f3f a926 90bd 8a6e b43e ba95 73be
00000190: 0b26 c7bc d146 cfbe a71a 26be 2f64 d13f
000001a0: 23f9 8b3e 9f03 fdbd 5d00 04be 0852 043e
000001b0: a4bb 59be f9fa 223e 2a85 843d c081 16be
000001c0: e2c6 0e3f 824a 88be 92cf f83e 95a9 9839
000001d0: 72fa 94bc da7b 0fbf 0947 fbbd 5a43 0c40
000001e0: 2888 903e 0f76 8c3d 948e 353e 4913 6c3e
000001f0: 2fce 37be 5781 7e3e 81b5 18be 24a9 d9bd

fc4.bias f4 [8]
0.5788983 -0.08355567 0.2746309 1.0298735 0.44009924 -0.6471759 0.40319827 0.61582696
00000000: ae32 143f 3c1f abbd 6c9c 8c3e e5d2 833f
00000010: b054 e13e 52ad 25bf 0170 ce3e d6a6 1d3f

fc5.weight f4 [2, 8]
-3.2410603 -0.2306766 -1.1382068 -2.2555165 0.5974608 1.3086416 1.9473138 2.5490983
-1.176399 0.46127164 -0.44057208 2.9764395 0.3819191 -1.0627258 0.52567565 0.753359
00000000: 886d 4fc0 7d36 6cbe c3b0 91bf 625a 10c0
00000010: 31f3 183f 9181 a73f 9441 f93f 6d24 2340
00000020: 3e94 96bf cc2b ec3e aa92 e1be fc7d 3e40
00000030: e68a c33e 6607 88bf ae92 063f 23dc 403f

fc5.bias f4 [2]
-0.25746375 1.0082202
00000000: 4ad2 83be 5c0d 813f
